…
tputId":"54fae4b7-17b3-40f9-f2df-cf498ad4e671"},"source":["opt = tensorflow.keras.optimizers.Adam(learning_rate=0.001)\n","model.compile(loss='logcosh', \n","              optimizer=opt, \n","              metrics=['accuracy'])\n","model.summary()"],"execution_count":null,"outputs":[{"output_type":"stream","name":"stdout","text":["Model: \"sequential_1\"\n","_________________________________________________________________\n"," Layer (type)                Output Shape              Param #   \n","=================================================================\n"," embedding_1 (Embedding)     (None, 82, 30)            391740    \n","                                                                 \n"," conv1d (Conv1D)             (None, 78, 32)            4832      \n","                                                                 \n"," max_pooling1d (MaxPooling1D  (None, 39, 32)           0         \n"," )                                                               \n","                                                                 \n"," conv1d_1 (Conv1D)           (None, 35, 32)            5152      \n","                                                                 \n"," conv1d_2 (Conv1D)           (None, 31, 128)           20608     \n","                                                                 \n"," max_pooling1d_1 (MaxPooling  (None, 15, 128)          0         \n"," 1D)                                                             \n","                                                                 \n"," flatten (Flatten)           (None, 1920)              0         \n","                                                                 \n"," dense_2 (Dense)             (None, 32)                61472     \n","                                                                 \n"," dense_3 (Dense)             (None, 6)                 198       \n","                                                                 \n","=================================================================\n","Total params: 484,002\n","Trainable params: 484,002\n","Non-trainable params: 0\n","_________________________________________________________________\n"]}]},{"cell_type":"code","metadata":{"id":"xZyF0lq3KuF5","colab":{"base_uri":"https://localhost:
…
